models/tmp.pth (torch_old, 435703 bytes, 4 tensors)

u_weight.weight f4 [1687, 40]
-0.01942234 0.006669782 0.01184501 -0.0145485895 0.015175592 0.018073602 0.0008221578 0.0021035916
-0.0064758873 -0.004498772 -0.0017120151 -0.0019014786 -0.004896318 -0.005541425 -0.0024374048 0.008715785
0.0060461103 0.006338306 0.018678196 -0.00857751 -0.0066850986 0.00909671 -0.0075720176 0.010669038
-0.0061903857 0.016860789 0.009275728 0.0012827101 -0.00655662 -0.007832322 -0.0005323911 -0.0029106592
0.0021203614 -0.00037793873 -0.013447324 0.0030560126 0.004955896 -0.0050306125 0.0062566493 0.0122451065
-0.0051883953 -0.013135109 0.0054025906 0.0056962078 -0.008279124 0.014091755 -0.004366454 0.0020946674
-0.011240903 0.004290617 0.016188068 -0.016466983 -0.0016369715 -0.0017021695 0.0048999 0.004961593
-0.018050581 0.015498926 0.0004491437 -0.0046985676 0.005218785 -0.005487463 0.003528012 -0.008749659
-0.013956489 -0.006837465 -0.0004989841 -8.5602216e-05 0.010744137 0.005001213 -0.0012376802 -0.0019146333
0.0010028603 -0.009760079 -0.017112961 0.000897306 -0.0001768312 0.0034781464 0.007887445 0.003043485
-0.0013228438 -0.0031284487 -0.008383912 -0.015708819 0.001652341 -0.0002608776 0.015395956 0.004718611
0.0018312506 -0.0035054912 -0.0061972532 -0.002121072 -0.00855651 0.019085785 0.0010346342 0.0039562634
-0.008402205 -0.012436871 0.004359573 -0.003248066 0.0041481485 -0.01535432 -0.0037599178 0.0032531833
0.0015239579 0.0059136585 0.00344038 -0.012261651 -0.000196418 -0.013807001 -0.0048182216 -0.0016426265
0.008154196 0.010317615 -0.002065545 0.00794319 0.0016509065 -0.009167186 -0.004633902 -0.0022522737
0.0020665133 0.0143070705 0.008774098 -0.0019054764 0.005712122 0.008733151 0.009376355 0.0021207593
0.0015063169 -0.0024768778 0.0021884828 0.0072980397 -0.0056529585 -0.017028375 0.006419315 0.0050849807
-0.004741427 -0.0066932016 0.014683414 0.0066601424 -0.0012115862 0.00047428272 0.013036311 -0.0029877047
0.0031062546 0.010430593 -0.0018142323 0.0014099819 -0.005229016 0.007413765 -0.00059733284 -0.0054408577
0.012739658 -0.011282126 -0.011333764 0.0019333214 0.018612478 -0.0036227962 -0.013511083 0.009919843
0.0049696197 0.0053581665 0.0057535213 -0.0069584027 0.0024072542 -0.016864914 0.0030669752 -0.0054747085
0.0005496208 -0.0011549728 0.016100828 -0.008002661 -0.015220685 0.0078342045 0.0020701885 0.006884324
-0.011175148 0.0030235609 0.014137333 -0.0056063686 0.011065194 -0.019693257 -0.0056864517 -0.0013969069
0.008031977 0.012624747 -0.0024585924 -0.0028795744 -0.012959775 -0.008494276 0.0065910583 0.012796249
-0.0025583138 -0.0054283547 -0.005497737 0.0001703199 -0.004235424 0.004349935 0.007521943 0.0147250565
-0.0031396279 0.004356419 0.002351514 -0.0090788705 -0.00014994713 0.0011402147 0.0024154512 0.00021828533
0.00027901307 0.0076290076 0.0015159356 -0.0035103867 0.011586466 -0.008334323 0.019929493 0.009712011
-0.0036055474 -0.0066196322 -0.007993329 0.011776933 0.0010144588 -0.0054463325 -0.0084656235 -0.0027279144
0.0011490724 -0.0039180275 0.011647888 -0.0116969105 0.007066186 -0.019822534 0.0035906862 0.011347822
0.0030495673 -0.000694589 0.0077400487 -0.003964122 0.004226282 0.005302545 0.0123845255 -0.000944425
-0.010742737 0.010131312 -0.006734034 -0.0032896276 -0.0072351233 0.012071776 0.0017235737 0.0045668166
0.0067960024 0.008097231 0.0018996362 -0.0024662171 0.010724489 0.001257861 -0.011124149 -0.016772907
00000000: 991b 9fbc 308e da3b 9311 423c 355d 6ebc
00000010: 0ca3 783c 170f 943c 1386 573a 69dc 093b
00000020: ae33 d4bb 6f6a 93bb b265 e0ba 093b f9ba
00000030: 4b71 a0bb d894 b5bb debc 1fbb a7cc 0e3c
00000040: 731e c63b 90b1 cf3b 0403 993c af88 0cbc
00000050: ac0e dbbb 5e0a 153c b01e f8bb 30cd 2e3c
00000060: b8d8 cabb a31f 8a3c 39f9 173c 9c20 a83a
00000070: ead8 d6bb 2453 00bc 2990 0bba c2c0 3ebb
00000080: c3f5 0a3b 1426 c6b9 2a52 5cbc 6247 483b
00000090: 1265 a23b d6d7 a4bb 9404 cd3b b39f 483c
000000a0: 6a03 aabb a434 57bc 3708 b13b 41a7 ba3b
000000b0: 2aa5 07bc 1be1 663c 7914 8fbb b046 093b
000000c0: c42b 38bc 4e98 8c3b d79c 843c c4e5 86bc
000000d0: a68f d6ba 551b dfba 578f a03b dc94 a23b
000000e0: d0de 93bc 35ef 7d3c 0c7b eb39 71f6 99bb
000000f0: 5702 ab3b 2dd0 b3bb 3836 673b bb5a 0fbc
00000100: c2a9 64bc d00c e0bb 42ce 02ba 5785 b3b8
00000110: 2d08 303c 37e1 a33b a839 a2ba 6ff4 faba
00000120: 6872 833a bde8 1fbc 7b30 8cbc 3039 6b3a
00000130: c46b 39b9 9df1 633b 583a 013c 3575 473b
00000140: 4663 adba a906 4dbb ad5c 09bc c8af 80bc
00000150: 5d93 d83a 66c6 88b9 523f 7c3c 949e 9a3b
00000160: 9306 f03a 62bc 65bb 5412 cbbb af01 0bbb
00000170: 9b30 0cbc cb59 9c3c 909c 873a 8ba3 813b
00000180: 67a9 09bc 05c4 4bbc c0da 8e3b 81dd 54bb
00000190: 31ed 873b b090 7bbc f468 76bb 5c33 553b
000001a0: 8bbf c73a 5dc7 c13b 0078 613b 18e5 48bc
000001b0: 8ef5 4db9 c236 62bc 2ce2 9dbb 664d d7ba
000001c0: 2d99 053c 370b 293c 185e 07bb 2724 023c
000001d0: 3b63 d83a f731 16bc fdd7 97bb e29a 13bb
000001e0: 576e 073b 3468 6a3c 3cc1 0f3c 2ec1 f9ba
000001f0: c12c bb3b 7d15 0f3c 499f 193c 70fc 0a3b
00000200: 9c6f c53a 1d53 22bb a66c 0f3b 6524 ef3b
00000210: 743c b9bb 177f 8bbc 1e59 d23b e99f a63b
00000220: f95d 9bbb a552 dbbb b492 703c 533d da3b
00000230: 16ce 9eba 26a9 f839 4096 553c 5ecd 43bb
00000240: 4e92 4b3b 14e5 2a3c 89cb edba 24cf b83a
00000250: 2a58 abbb 2bef f23b 5496 1cba 3949 b2bb
00000260: 00ba 503c abd8 38bc 40b1 39bc 8067 fd3a
00000270: 3279 983c 6f6c 6dbb 975d 5dbc d686 223c
00000280: 31d8 a23b 8f93 af3b 0988 bc3b 5003 e4bb
00000290: 06c3 1d3b 4a28 8abc 4eff 483b 2f65 b3bb
000002a0: 6d14 103a 7562 97ba e2e5 833c 981d 03bc
000002b0: 2e60 79bc 095b 003c 00ac 073b e595 e13b
000002c0: f817 37bc ef26 463b 46a0 673c a1b5 b7bb
000002d0: ca4a 353c c153 a1bc 6a55 babb 6b18 b7ba
000002e0: 8e98 033c 07d8 4e3c 5620 21bb 3eb7 3cbb
000002f0: 3c55 54bc 932b 0bbc cef9 d73b 5ca7 513c
00000300: 62a9 27bb 57e0 b1bb 5c26 b4bb e697 3239
00000310: 50c9 8abb e689 8e3b a27a f63b 5d41 713c
00000320: 37c2 4dbb 4bc0 8e3b dc1b 1a3b 8bbf 14bc
00000330: 203b 1db9 4273 953a 8c4c 1e3b 86e3 6439
00000340: 8048 9239 c1fc f93b 5cb2 c63a 840e 66bb
00000350: 29d5 3d3c af8c 08bc 2d43 a33c 201f 1f3c
00000360: 0c4b 6cbb 80e9 d8bb 74f6 02bc 0af4 403c
00000370: 97f7 843a 2677 b2bb 66b3 0abc cfc6 32bb
00000380: 799c 963a cc62 80bb c9d6 3e3c 66a4 3fbc
00000390: 778b e73b de62 a2bc b851 6b3b 37ec 393c
000003a0: 40db 473b 1415 36ba 3ca0 fd3b 77e5 81bb
000003b0: 9f7c 8a3b f9c0 ad3b 77e8 4a3c 4a93 77ba
000003c0: 4e02 30bc cdfd 253c 2ca9 dcbb cb96 57bb
000003d0: 9d14 edbb b3c8 453c 89e9 e13a 3ca5 953b
000003e0: 00b1 de3b 40aa 043c 37fd f83a 42a0 21bb
000003f0: c4b5 2f3c d0de a43a 1042 36bc 5667 89bc

i_weight.weight f4 [963, 40]
-0.004710031 -0.010518254 0.0111692725 -0.016613463 -0.011290509 -0.011984661 0.013852564 -0.017087337
-0.012029137 0.011204329 -0.0045047826 0.0064517134 0.005836132 -0.0029893368 0.0044936836 -0.0012664294
0.007193042 -0.0025676663 -0.01217281 -0.015071474 -0.0057748198 -0.0048493464 -0.0064288666 -0.011779648
0.018307447 -0.0020102668 0.006020387 -0.013246064 -0.0031718877 0.011398257 -0.018035393 0.011542779
-0.010118556 -0.012825655 -0.007941343 -0.015874188 0.0048979777 0.0043959892 0.012964312 0.005872471
-0.0030950522 0.012238145 -0.0032216832 0.010202358 -0.0038003128 0.015747504 0.0107874535 0.009449482
-0.0049823658 -0.0025011562 -0.019760817 0.0008798907 -0.004759994 -0.0025078407 0.0053589568 0.007688699
-0.016204389 0.016065449 -0.009830485 0.005667093 -0.011609961 0.015105405 -0.00028365693 -0.0097256
0.017910777 0.00698962 -0.0063575497 0.010757699 -0.01018778 0.008828861 -0.0043278653 -0.004681987
0.002644406 -0.0075705233 -0.00029181433 -0.018025914 -0.00677688 -0.005323619 -0.018318864 0.00040592666
-0.00093800714 -0.004329641 -0.006625872 -0.0056556747 -0.005484745 -0.008473953 0.008232244 -0.0033250852
-0.0068505397 -0.0030035237 -0.008518391 -0.0069973283 -0.0014694383 0.012178338 0.008320197 0.006861559
-0.009214062 -0.011355892 -0.010050094 -0.0013559498 0.01290705 0.011936863 0.010902815 0.015125632
-0.0044772173 -0.008858045 0.0029745465 0.014159747 -0.007021347 0.016833883 -0.014437356 -0.0038244033
-0.0017227257 -0.006551058 -0.0067537474 -0.008741324 -0.012863207 0.0010724796 -0.0014691917 0.008721408
0.017740514 -0.003472623 -0.0069180676 0.017504985 -0.019781217 -0.0023840626 -0.010822147 -0.0046824054
-0.012722975 0.015922537 -0.01081923 0.013537855 0.011308338 -0.0032557293 0.0068827593 -0.003983953
-0.0010254495 -0.0019467358 -0.0087634185 0.014333148 0.0021074149 0.012886094 -0.0026003388 0.010116169
-0.00026770806 0.009622904 0.0005879008 -0.0009896971 0.0118603 -0.00676577 0.008926668 0.005460482
0.00801338 -0.0070172613 0.010826113 0.0042884946 -0.014732349 -0.018461308 0.0033365947 0.015959602
0.018963194 -0.008487443 0.005709971 0.007835794 0.0073661255 0.0034643891 -0.0026776472 -0.012715267
-0.008180932 0.012892532 0.0010897506 -0.0100901015 0.008645426 0.0030468074 0.012797341 -0.0075932466
0.014970177 0.0094683 0.0035555987 -0.00814892 0.0022566563 -0.011132051 -0.00952872 -0.0048726136
0.0029331401 -0.013312102 -0.008213878 -0.006875949 0.018094974 0.0069775432 0.01016689 -0.0055047213
-0.01573857 -0.0017093861 0.004342617 -0.000656479 -0.01119939 0.0038270615 -0.010568164 -0.0037450967
-0.010800428 0.012000949 0.0020964846 0.0047430755 0.005929489 0.00012156137 -0.0013719825 -0.0009901193
-0.0012060791 0.009816331 0.0031505194 0.0011840791 -0.013933715 0.00032306358 -0.005941368 -0.004754936
-0.019024443 -0.00938095 0.00020270358 -0.010518093 -0.006086459 -0.015211787 -0.012533818 -0.0073549217
0.007551217 -0.004719283 0.005514867 0.007941003 -0.010163449 0.009903628 -0.013961657 0.0040024593
0.016704012 -0.0062542236 -0.0010486348 0.0073894793 0.017345784 0.017416237 0.0030264151 0.0055900654
0.006744542 0.006125799 -0.011991439 0.004611157 -0.005857085 -0.012689434 0.008614656 -0.002204226
-0.004782009 0.0021933962 -0.010175127 0.0074502635 0.004243664 -0.013449722 -0.00018440008 -0.0045475843
00000000: 9b56 9abb c154 2cbc 53ff 363c f518 88bc
00000010: d4fb 38bc 505b 44bc ddf5 623c befa 8bbc
00000020: dc15 45bc 5d92 373c db9c 93bb e568 d33b
00000030: 063d bf3b c0e8 43bb c03f 933b 52fe a5ba
00000040: 9cb3 eb3b 4b46 28bb 7770 47bc 58ee 76bc
00000050: b33a bdbb 44e7 9ebb 3ea9 d2bb 6dff 40bc
00000060: 80f9 953c aebe 03bb ab46 c53b 0506 59bc
00000070: 72df 4fbb c1bf 3a3c f6be 93bc ed1d 3d3c
00000080: 4dc8 25bc b222 52bc 681c 02bc 960a 82bc
00000090: 377f a03b 3b0c 903b 4468 543c db6d c03b
000000a0: 5cd6 4abb 8082 483c e022 53bb ca27 273c
000000b0: ab0e 79bb e900 813c dcbd 303c 00d2 1a3c
000000c0: 1d43 a3bb 70ea 23bb 70e1 a1bc 77a8 663a
000000d0: b9f9 9bbb 965a 24bb 309a af3b 7bf1 fb3b
000000e0: 11bf 84bc b09b 833c 0b10 21bc 06b3 b93b
000000f0: b537 3ebc a97c 773c cab7 94b9 1f58 1fbc
00000100: 9fb9 923c 2f09 e53b fe52 d0bb 0f41 303c
00000110: a5ea 26bc eda6 103c c4d0 8dbb 5b6b 99bb
00000120: c54d 2d3b 2712 f8bb a8fe 98b9 15ab 93bc
00000130: 9710 debb c171 aebb 7111 96bc 8ed2 d439
00000140: 98e4 75ba a9df 8dbb d81d d9bb 3d53 b9bb
00000150: 60b9 b3bb 56d6 0abc 89e0 063c ace9 59bb
00000160: 7e7a e0bb c4d6 44bb b990 0bbc d849 e5bb
00000170: 2b9a c0ba a787 473c 7051 083c eed6 e03b
00000180: 94f6 16bc 100e 3abc 26a9 24bc 20ba b1ba
00000190: 1778 533c d592 433c b8a1 323c 80d1 773c
000001a0: 9fb5 92bb 5521 11bc 9cf0 423b 49fe 673c
000001b0: 5413 e6bb 36e7 893c a98a 6cbc d7a2 7abb
000001c0: 15cd e1ba 42aa d6bb 8a4e ddbb c537 0fbc
000001d0: 33c0 52bc 7292 8c3a e591 c0ba 3de4 0e3c
000001e0: 8e54 913c f294 63bb f5b0 e2bb 9d66 8f3c
000001f0: 380c a2bc ef3d 1cbb 604f 31bc dd6e 99bb
00000200: 0674 50bc fb6f 823c 2443 31bc e1cd 5d3c
00000210: 9b46 393c 135e 55bb c588 e13b d28b 82bb
00000220: 6068 86ba 9d29 ffba 7194 0fbc 94d5 6a3c
00000230: 8e1c 0a3b 3220 533c 726a 2abb 4abe 253c
00000240: 2b5b 8cb9 62a9 1d3c 5b1d 1a3a b9b8 81ba
00000250: b451 423c 64b3 ddbb 2941 123c d8ed b23b
00000260: 8d4a 033c 0ef1 e5bb 0260 313c 8086 8c3b
00000270: f35f 71bc 2b3c 97bc c5aa 5a3b b6bd 823c
00000280: b358 9b3c eb0e 0bbc b51a bb3b b461 003c
00000290: 8a5f f13b ce0a 633b 777b 2fbb b253 50bc
000002a0: 5109 06bc 333b 533c f6d5 8e3a f450 25bc
000002b0: 8ba5 0d3c f2ac 473b f0ab 513c c5d0 f8bb
000002c0: 7945 753c ee20 1b3c 0c05 693b 0c83 05bc
000002d0: 69e4 133b 3563 36bc 591e 1cbc 72aa 9fbb
000002e0: ed39 403b 011b 5abc 8093 06bc a44f e1bb
000002f0: e93b 943c e0a3 e43b 0793 263c f360 b4bb
00000300: 2cee 80bc 7b0d e0ba 834c 8e3b 8f17 2cba
00000310: a57d 37bc 70cf 7a3b 1826 2dbc 4c70 75bb
00000320: 47f4 30bc a19f 443c 2d65 093b cd6b 9b3b
00000330: 294c c23b c3ee fe38 18d4 b3ba e4c6 81ba
00000340: 4d15 9eba add4 203c f278 4e3b 1a33 9b3a
00000350: 3d4a 64bc dc60 a939 cfaf c2bb 4bcf 9bbb
00000360: 26d9 9bbc 8eb2 19bc d48c 5439 1454 2cbc
00000370: eb70 c7bb dc3a 79bc a55a 4dbc 8e01 f1bb
00000380: 3370 f73b 37a4 9abb 0fb6 b43b fb1a 023c
00000390: 9884 26bc d442 223c 6fbf 64bc 1027 833b
000003a0: dad6 883c 3bf0 ccbb 5872 89ba 7223 f23b
000003b0: bf18 8e3c 7fac 8e3c d256 463b de2c b73b
000003c0: 5201 dd3b edba c83b be77 44bc 3019 973b
000003d0: caec bfbb 58e7 4fbc 7c24 0d3c c774 10bb
000003e0: 66b2 9cbb 15bf 0f3b 93b5 26bc 5721 f43b
000003f0: 6f0e 8b3b 395c 5cbc 855b 41b9 e703 95bb

u_bias.weight f4 [1687, 1]
0.011140159 -0.0042476524 -0.0009515767 -0.009255709 -0.0072634905 -0.0067841765 0.006597085 -0.015363212
-0.0067785885 0.008454901 -0.016957533 0.0064586857 -0.012403333 0.00066394656 0.012493163 -0.0047346978
-0.00036575977 0.011364374 0.00910786 0.0038958925 0.0012095121 -0.016622629 0.0050648064 0.003263331
0.0074772662 0.0036134936 0.010213223 0.0026741552 -0.0029662207 -0.0058601527 -0.0034635752 -0.007650671
0.00473297 0.0005854061 -0.00059009006 -0.0012070952 -0.00859183 0.009208413 0.017784864 0.0043833423
0.0043475134 0.00835819 0.0040872064 -0.001717602 0.0033423847 -0.00018788967 -0.004365596 -0.0038017593
0.009420436 -0.010557074 -0.0036873696 0.00068543665 -0.014126437 0.005093835 0.0068256133 -0.0066896896
0.009037416 0.0044724816 -0.004059786 -0.012661683 -0.008123434 -0.008824852 0.0083607435 -0.0024672626
0.0028388158 0.018485919 0.0036164587 0.011345486 -0.005418246 -0.004086799 0.012728532 -0.0051670144
0.0024334486 -0.010546519 0.014379303 -0.0007955762 0.017254574 -0.0061449152 0.0036115376 -0.00056532637
-0.00074733916 0.011963063 -0.0013486822 0.004871006 -0.007953104 0.01268747 -0.010346623 0.0010664478
-0.0125809265 0.00014491186 0.001191378 0.009298083 -0.009269314 0.0010887358 -0.0045773005 0.0030530428
-0.0012779156 0.007280285 0.0036678724 -0.007790704 -0.012056734 0.0014763293 0.004499581 0.0070436196
0.011374514 0.009973678 0.009673016 0.019463 -0.0014510077 0.007295878 -0.0114677055 0.0056204014
-0.0014520395 -0.011262299 0.0061872452 -0.0030188884 0.008474662 0.00010178321 -0.00286754 0.001167233
-0.0022344184 -0.0024363147 0.012516837 -0.016639777 -0.004820156 -0.011322343 -0.017586078 -0.0017864179
-0.0028125755 -0.013229438 -2.7137169e-06 0.015280559 0.0074868486 -0.007692601 0.0017733799 -0.0038253285
0.004436148 -0.010938932 -0.0041571804 -0.019728903 0.0025811498 0.0037298708 0.009081013 0.0013187506
0.012084959 -0.009559585 -0.006962425 0.008743174 -0.004054593 -0.0074209217 -0.004837633 0.008282996
-0.0054766578 0.0014689321 0.0005499637 -0.012492774 -0.015871717 0.0068510612 0.015082305 0.0068928567
0.0073980987 0.006122654 -0.0014357008 0.009006057 0.0045196773 -0.006148028 0.009556239 -0.0057143685
0.0022534227 -0.0025535685 -0.0065798666 0.009150152 0.010070159 -0.0048969844 -0.016944641 0.015647486
0.00027101897 -0.019799557 0.009995287 0.00311563 0.014293917 -0.009725732 0.009185622 0.0041671656
0.0035081883 -0.0075252387 -0.01705047 -0.01204684 0.010452566 -0.019731129 0.019280892 -0.00927166
-0.0067302454 0.005724005 -0.0007292552 0.01644951 0.002096036 0.010538919 -0.0121257305 -0.0016215729
0.004878675 0.0038449082 -0.010605701 -0.0019354257 -0.019673064 -0.008212923 0.003044397 0.0023452255
0.0035169034 -0.012114257 0.0008522896 0.010240943 -0.0041556866 -0.008639856 0.0048312843 0.015734743
-0.0112300785 0.0063821548 -0.005109934 0.008041758 -0.0034357214 -0.00042091176 0.0035143713 0.008740594
0.0037866086 -0.006037232 -0.0025364505 -0.004910742 0.0038733524 -0.0013177929 -0.0015400378 -0.004269354
-0.015868688 -0.0034604168 -0.0045646606 0.0005591228 -0.0057087145 0.0022804232 0.00742542 -0.0052085547
0.0050542904 -0.0020722114 0.0018926333 -0.0095665455 0.0031103087 -0.0054505817 -0.011909829 -0.0067435103
-0.016834104 -0.013721596 0.0029668894 0.017793747 0.0003345162 0.008106089 -0.00521691 0.0063754767
00000000: 3785 363c e42f 8bbb 3b73 79ba 42a5 17bc
00000010: 9302 eebb cc4d debb 5c2c d83b fbb5 7bbc
00000020: ec1e debb 6d86 0a3c 86ea 8abc 62a3 d33b
00000030: 5937 4bbc b30c 2e3a 20b0 4c3c 8625 9bbb
00000040: 72c3 bfb9 a431 3a3c 2239 153c 3b52 7f3b
00000050: 7e88 9e3a 2e2c 88bc adf6 a53b 9cdd 553b
00000060: db03 f53b 5dd0 6c3b 5d55 273c e140 2f3b
00000070: ed64 42bb 8606 c0bb 26fd 62bb 7bb2 fabb
00000080: 0817 9b3b f075 193a 46b0 1aba 6537 9eba
00000090: bfc4 0cbc e2de 163c 90b1 913c 24a2 8f3b
000000a0: 9675 8e3b caf0 083c f9ed 853b 2921 e1ba
000000b0: e90b 5b3b 4004 45b9 460d 8fbb f026 79bb
000000c0: 2c58 1a3c 94f7 2cbc cca7 71bb e0ae 333a
000000d0: 9272 67bc 2fea a63b 65a9 df3b 2f35 dbbb
000000e0: ac11 143c e58d 923b f407 85bb f372 4fbc
000000f0: 2718 05bc 1d96 10bc 80fb 083c ccb1 21bb
00000100: 6d0b 3a3b c86f 973c 1c02 6d3b 6be2 393c
00000110: 8b8b b1bb 8eea 85bb 558b 503c 0f50 a9bb
00000120: 7e7a 1f3b 4fcb 2cbc 2b97 6b3c 378e 50ba
00000130: 7759 8d3c 495b c9bb 8caf 6c3b 6932 14ba
00000140: 15e9 43ba b900 443c 44c6 b0ba f69c 9f3b
00000150: bc4d 02bc 1bdf 4f3c e284 29bc 0dc8 8b3a
00000160: 3b20 4ebc 7bf3 1739 0328 9c3a fd56 183c
00000170: 52de 17bc e9b3 8e3a 2efd 95bb 8f15 483b
00000180: bb7f a7ba 758f ee3b b060 703b 2949 ffbb
00000190: 9c89 45bc 6481 c13a 3971 933b 2ace e63b
000001a0: 2b5c 3a3c a368 233c 927b 1e3c df70 9f3c
000001b0: bd2f beba 4312 ef3b 0be3 3bbc 582b b83b
000001c0: 5c52 beba 8185 38bc 60be ca3b 8bd8 45bb
000001d0: 4fd9 0a3c 7274 d538 57ed 3bbb d7fd 983a
000001e0: 526f 12bb 94aa 1fbb 6b13 4d3c 2450 88bc
000001f0: 66f2 9dbb 5981 39bc ae10 90bc 3d26 eaba
00000200: 3053 38bb 49c0 58bc 4d1d 36b6 4f5b 7a3c
00000210: 3d54 f53b 3712 fcbb c170 e83a 5db2 7abb
00000220: 1b5d 913b 3539 33bc f538 88bb 829e a1bc
00000230: 8228 293b d970 743b 87c8 143c edd9 ac3a
00000240: feff 453c ce9f 1cbc 0e25 e4bb 883f 0f3c
00000250: 64dc 84bb 342b f3bb 0285 9ebb 67b5 073c
00000260: 8975 b3bb 2f89 c03a 702b 103a 7eae 4cbc
00000270: 6705 82bc de7e e03b c61b 773c 79dd e13b
00000280: c06b f23b 8ba0 c83b 202e bcba 248e 133c
00000290: cd19 943b 6675 c9bb c591 1c3c 993f bbbb
000002a0: 29ae 133b c559 27bb ec9b d7bb 85ea 153c
000002b0: 4ffd 243c e276 a0bb 7dcf 8abc 282f 803c
000002c0: 8d17 8e39 ae32 a2bc 46c3 233c 992f 4c3b
000002d0: 0931 6a3c ad58 1fbc 4b7f 163c b88c 883b
000002e0: a2e9 653b 4796 f6bb 6dad 8bbc 1c60 45bc
000002f0: 3d41 2b3c 2da3 a1bc f6f2 9d3c 29e8 17bc
00000300: 6489 dcbb 6f90 bb3b 7d2b 3fba 1fc1 863c
00000310: a65d 093b 6eab 2c3c 00ab 46bc f58a d4ba
00000320: 4bdd 9f3b dbfa 7b3b 89c3 2dbc 1cae fdba
00000330: 6829 a1bc 7f8f 06bc 8284 473b 5bb2 193b
00000340: d97b 663b e07a 46bc 306c 5f3a a1c9 273c
00000350: 6d2c 88bb 2f8e 0dbc c04f 9e3b 26e6 803c
00000360: 5dfe 37bc 6521 d13b 3c71 a7bb 94c1 033c
00000370: d729 61bb d2ad dcb9 5e51 663b b534 0f3c
00000380: c028 783b f9d3 c5bb 943a 26bb 4aea a0bb
00000390: 12d8 7d3b cbb9 acba 18db c9ba f0e5 8bbb
000003a0: 0dff 81bc 29c8 62bb 2693 95bb 1992 123a
000003b0: 2b10 bbbb 2773 153b f050 f33b 86ac aabb
000003c0: 769e a53b f0cd 07bb 3c12 f83a 00bd 1cbc
000003d0: 52d6 4b3b cb9a b2bb 7221 43bc aaf8 dcbb
000003e0: ade7 89bc 8cd0 60bc 2570 423b 31c4 913c
000003f0: 0162 af39 67cf 043c 9df2 aabb 60e9 d03b

i_bias.weight f4 [963, 1]
0.0019876761 -0.018246582 0.0018128653 0.012183298 0.0057727075 0.010976029 0.0020426458 -0.0016601348
-3.6107136e-05 -0.004663804 -0.007448204 0.008682095 0.016321482 -0.01413948 0.0017407223 0.0055270516
-0.013549517 0.002082723 0.007999431 -0.0078306515 -0.0013098061 -0.014298273 0.0051052696 0.0063629923
0.0010568103 0.0032477926 0.011359134 -0.012048129 0.0044661774 -0.00012291908 0.0024978528 0.0021879526
-0.0037817773 -0.0070980755 0.0103289755 -0.0068462477 -0.0049584643 -0.014263856 -0.00840951 0.0057630083
-0.013365317 0.00640087 0.001897201 0.007781825 -0.011289456 -0.019563718 -0.0077692983 0.0059912205
0.0035449278 0.0039005377 0.012295697 -0.007768005 -0.0019246412 -0.0076501775 0.0085907215 -0.0077020302
-0.011274684 -0.012379521 0.0030784728 0.008713665 0.0057176864 0.0013972138 -0.0024601154 0.008018324
-0.009944057 -0.003581376 -0.010351724 -0.0043322155 -0.0034612438 0.007876004 0.011338 -0.0067481003
0.0032489898 0.0067697256 0.011117073 -0.0018545107 0.010043238 0.0025415823 -0.013545837 -0.0068565416
-0.013420748 -0.014802036 0.009717223 0.0058054337 -0.0024333377 0.00629395 0.0054108333 -0.007284782
0.011949299 -0.0146773625 -0.014432758 -0.008230008 0.007398148 -0.0066975704 0.0012678218 -0.005819625
-0.009707823 0.0010224846 -0.014935331 0.008403571 -0.0031657743 -0.00636239 -0.019653717 -0.003921997
0.015867995 8.2506675e-05 -0.000816996 0.019011868 0.013295553 0.01797111 7.917303e-06 -0.00770614
-0.01937455 -0.00783906 0.013108199 0.0073094987 -0.0057962197 0.010251441 -0.0073474753 0.01597979
0.0021782622 -0.011958997 -0.008247688 0.010371834 0.009637597 -0.01671364 0.001504497 0.0062629757
0.005938945 0.007971579 -0.0070866775 0.010560871 0.0003794957 0.001867246 0.010433797 0.0011405381
0.006515674 0.0059270356 -0.0046187793 -0.008160965 -0.0023729466 0.010102682 -0.0075137643 0.013885685
0.006375187 -0.00091882766 -0.004570999 -0.0030587032 -0.005257845 0.004516169 0.0014217786 0.01352657
-0.0023794775 0.0032325638 -0.0036912009 -0.011378248 0.015800785 -0.016148886 -0.0120217735 -0.013135556
0.0059001762 0.00058868236 -0.00986758 0.005202096 0.009543712 0.002990873 -0.0045581153 0.0019050092
0.0010745886 -0.019615155 -0.0033883816 -0.0046091694 -0.011493099 -0.008235375 0.013097048 -0.009565634
0.008678218 -0.002944794 0.00062526553 -0.012681595 -0.014439132 0.0054159663 -0.007592295 -0.010399789
-0.010335513 -0.01414357 -0.012725428 0.0019638424 -0.0077353744 0.0010763708 0.013728719 -0.0050379764
0.018416656 -0.004044955 0.012434118 -0.00572453 -0.0069686947 -0.00787817 -0.01314455 0.00040605306
0.0094884215 0.016986111 -0.015862243 -0.008375363 -0.017211573 -0.012149293 0.006832419 0.0027612944
-0.007722947 0.0018868321 0.010703504 0.006705346 -0.0018134528 0.014759694 -0.004728342 -0.0019285276
-0.012287572 0.00544071 0.008807891 -0.016660724 -0.0011913422 0.0016503452 0.001439748 0.007540252
-0.0065265093 -0.008137062 -0.0026655297 0.008346644 -0.0060027097 0.0026463708 -0.0020784095 -0.003956414
-0.013980185 9.232332e-05 0.006274652 0.0028796096 -0.0026750301 0.006024199 -0.008353775 0.00068499177
0.0165309 0.006973359 -0.0039121155 -0.0017473088 0.00044886 -0.0052776025 -0.016857797 0.0025664207
-0.0015012907 -0.006643902 0.008138898 -0.016482105 -0.008752452 -0.00812507 -0.0034623109 0.00043386559
00000000: ac43 023b db79 95bc aa9d ed3a 759c 473c
00000010: fb28 bd3b cdd4 333c e9dd 053b e198 d9ba
00000020: be71 17b8 d3d2 98bb 1010 f4bb 593f 0e3c
00000030: a1b4 853c 47a9 67bc f328 e43a 451c b53b
00000040: cbfe 5dbc 4b7e 083b 0c10 033c 224c 00bc
00000050: cdad abba 4e43 6abc 1b4a a73b a680 d03b
00000060: ab84 8a3a ebd8 543b a91b 3a3c 8465 45bc
00000070: 0359 923b d7e3 00b9 04b3 233b c163 0f3b
00000080: b2d7 77bb f996 e8bb dd3a 293c 7d56 e0bb
00000090: 9d7a a2bb f3b2 69bc 0bc8 09bc 9ed7 bc3b
000000a0: 34fa 5abc 64be d13b 80ab f83a aefe fe3b
000000b0: 69f7 38bc 1744 a0bc 9995 febb 0052 c43b
000000c0: 0552 683b 2aa0 7f3b e473 493c c08a febb
000000d0: 3e44 fcba 57ae fabb 19c0 0c3c 5061 fcbb
000000e0: 74b9 38bc 79d3 4abc 34c0 493b c3c3 0e3c
000000f0: 6e5b bb3b b722 b73a e339 21bb 4a5f 033c
00000100: 66ec 22bc 85b5 6abb 479a 29bc 42f5 8dbb
00000110: 09d6 62bb 5b0a 013c 05c3 393c 2b1f ddbb
00000120: 01ed 543b 93d4 dd3b 6224 363c 0e13 f3ba
00000130: 658c 243c ad90 263b 5cef 5dbc d7ac e0bb
00000140: b2e2 5bbc 3d84 72bc fd34 1f3c 823b be3b
00000150: a278 1fbb 7b3d ce3b 5c4d b13b 2eb5 eebb
00000160: fec6 433c 5279 70bc 6077 6cbc 28d7 06bc
00000170: 2a6c f23b 4b77 dbbb 0a2d a63a 8eb2 bebb
00000180: 900d 1fbc e404 863a 52b3 74bc 22af 093c
00000190: e178 4fbb 987b d0bb d500 a1bc 1884 80bb
000001a0: 99fd 813c 6f07 ad38 ac2b 56ba c7be 9b3c
000001b0: 97d5 593c 2638 933c 8fd4 0437 ca83 fcbb
000001c0: 60b7 9ebc 676f 00bc c6c3 563c 8584 ef3b
000001d0: 37ee bdbb a9f5 273c 17c3 f0bb 0ce8 823c
000001e0: 2dc1 0e3b abef 43bc 5021 07bc a0ee 293c
000001f0: 03e7 1d3c 0beb 88bc 8b32 c53a a639 cd3b
00000200: 7b9b c23b 3a9b 023c 5c37 e8bb 8107 2d3c
00000210: 0df7 c639 61be f43a 84f2 2a3c 1c7e 953a
00000220: 6f81 d53b 9437 c23b 2159 97bb 91b5 05bc
00000230: 7083 1bbb b885 253c 0636 f6bb c980 633c
00000240: f2e6 d03b 7bdd 70ba 52c8 95bb 8674 48bb
00000250: 004a acbb 5ffc 933b f95a ba3a 8c9e 5d3c
00000260: 02f1 1bbb 6cd9 533b 13e8 71bb d56b 3abc
00000270: a670 813c ab4a 84bc f9f6 44bc 8436 57bc
00000280: 4456 c13b ce51 1a3a a1ab 21bc 5876 aa3b
00000290: 3b5d 1c3c 8602 443b 3e5c 95bb 80b1 f93a
000002a0: 36d9 8c3a f6af a0bc 9c0f 5ebb 8408 97bb
000002b0: 8d4d 3cbc abed 06bc 0095 563c 2db9 1cbc
000002c0: 162f 0e3c 72fd 40bb dce8 233a 77c6 4fbc
000002d0: 1c92 6cbc 6b78 b13b c9c8 f8bb e063 2abc
000002e0: 4956 29bc 6fba 67bc 507e 50bc cfb3 003b
000002f0: 0679 fdbb 0315 8d3a 6cee 603c 9c15 a5bb
00000300: 87de 963c 8b8b 84bb 79b8 4b3c d794 bbbb
00000310: a659 e4bb 7113 01bc 3d5c 57bc 85e3 d439
00000320: 5375 1b3c 7526 8b3c 89f1 81bc d238 09bc
00000330: 49ff 8cbc d40d 47bc 7ce2 df3b d5f6 343b
00000340: c610 fdbb 944f f73a c05d 2f3c 85b8 db3b
00000350: 61b1 edba a5d2 713c 35f0 9abb a6c6 fcba
00000360: d051 49bc fc47 b23b f94e 103c 127c 88bc
00000370: d026 9cba 6550 d83a edb5 bc3a 3814 f73b
00000380: 54dc d5bb 5051 05bc 2bb0 2ebb 5dc0 083c
00000390: 61b2 c4bb bc6e 2d3b ed35 08bb cea4 81bb
000003a0: 250d 65bc b49d c138 999b cd3b d5b7 3c3b
000003b0: 8f4f 2fbb a566 c53b 46de 08bc 0591 333a
000003c0: cf6b 873c c680 e43b 3431 80bb f405 e5ba
000003d0: f854 eb39 bdef acbb 5d19 8abc 6531 283b
000003e0: f5c6 c4ba 17b5 d9bb 0359 053c 7b05 87bc
000003f0: 7266 0fbc 031f 05bc f0e7 62bb 7478 e339
